…
/WAVE/users/unix/smadsen/Desktop/bci_final/datasets/pca/train/6.edf.data
/WAVE/users/unix/smadsen/Desktop/bci_final/datasets/pca/train/13.edf.data
/WAVE/users/unix/smadsen/Desktop/bci_final/datasets/pca/train/3.edf.data
Found 8995 trials
Found 2249 trials
===================================================================================================================
Layer (type:depth-idx)                   Input Shape               Output Shape              Param #
===================================================================================================================
DeepConvNet                              [1, 1, 1126, 30]          [1, 4]                    --
├─Sequential: 1-1                        [1, 1, 1126, 30]          [1, 4]                    --
│    └─Conv2d: 2-1                       [1, 1, 1126, 30]          [1, 25, 1117, 30]         275
│    └─Conv2d: 2-2                       [1, 25, 1117, 30]         [1, 25, 1117, 1]          18,775
│    └─BatchNorm2d: 2-3                  [1, 25, 1117, 1]          [1, 25, 1117, 1]          50
│    └─ELU: 2-4                          [1, 25, 1117, 1]          [1, 25, 1117, 1]          --
│    └─MaxPool2d: 2-5                    [1, 25, 1117, 1]          [1, 25, 372, 1]           --
│    └─Conv2d: 2-6                       [1, 25, 372, 1]           [1, 50, 363, 1]           12,550
│    └─BatchNorm2d: 2-7                  [1, 50, 363, 1]           [1, 50, 363, 1]           100
│    └─ELU: 2-8                          [1, 50, 363, 1]           [1, 50, 363, 1]           --
│    └─MaxPool2d: 2-9                    [1, 50, 363, 1]           [1, 50, 121, 1]           --
│    └─Conv2d: 2-10                      [1, 50, 121, 1]           [1, 100, 112, 1]          50,100
│    └─ELU: 2-11                         [1, 100, 112, 1]          [1, 100, 112, 1]          --
│    └─BatchNorm2d: 2-12                 [1, 100, 112, 1]          [1, 100, 112, 1]          200
│    └─MaxPool2d: 2-13                   [1, 100, 112, 1]          [1, 100, 37, 1]           --
│    └─Conv2d: 2-14                      [1, 100, 37, 1]           [1, 200, 28, 1]           200,200
│    └─BatchNorm2d: 2-15                 [1, 200, 28, 1]           [1, 200, 28, 1]           400
│    └─ELU: 2-16                         [1, 200, 28, 1]           [1, 200, 28, 1]           --
│    └─MaxPool2d: 2-17                   [1, 200, 28, 1]           [1, 200, 9, 1]            --
│    └─Flatten: 2-18                     [1, 200, 9, 1]            [1, 1800]                 --
│    └─Linear: 2-19                      [1, 1800]                 [1, 4]                    7,204
===================================================================================================================
Total params: 289,854
Trainable params: 289,854
Non-trainable params: 0
Total mult-adds (M): 45.97
===================================================================================================================
Input size (MB): 0.14
Forward/backward pass size (MB): 7.71
Params size (MB): 1.16
…
