…
/WAVE/users/unix/smadsen/Desktop/bci_final/datasets/pca/train/6.edf.data
/WAVE/users/unix/smadsen/Desktop/bci_final/datasets/pca/train/13.edf.data
/WAVE/users/unix/smadsen/Desktop/bci_final/datasets/pca/train/3.edf.data
Found 8995 trials
Found 2249 trials
===================================================================================================================
Layer (type:depth-idx)                   Input Shape               Output Shape              Param #
===================================================================================================================
EEGNet                                   [1, 1, 30, 1126]          [1, 4]                    --
├─Sequential: 1-1                        [1, 1, 30, 1126]          [1, 125, 30, 1126]        --
│    └─Conv2d: 2-1                       [1, 1, 30, 1126]          [1, 125, 30, 1126]        8,000
│    └─BatchNorm2d: 2-2                  [1, 125, 30, 1126]        [1, 125, 30, 1126]        250
├─Sequential: 1-2                        [1, 125, 30, 1126]        [1, 250, 1, 1126]         --
│    └─Conv2d: 2-3                       [1, 125, 30, 1126]        [1, 250, 1, 1126]         7,500
│    └─BatchNorm2d: 2-4                  [1, 250, 1, 1126]         [1, 250, 1, 1126]         500
│    └─ELU: 2-5                          [1, 250, 1, 1126]         [1, 250, 1, 1126]         --
├─AvgPool2d: 1-3                         [1, 250, 1, 1126]         [1, 250, 1, 225]          --
├─Dropout: 1-4                           [1, 250, 1, 225]          [1, 250, 1, 225]          --
├─Sequential: 1-5                        [1, 250, 1, 225]          [1, 25, 1, 225]           --
│    └─SeparableConv2d: 2-6              [1, 250, 1, 225]          [1, 25, 1, 225]           --
│    │    └─Conv2d: 3-1                  [1, 250, 1, 225]          [1, 250, 1, 225]          4,000
│    │    └─Conv2d: 3-2                  [1, 250, 1, 225]          [1, 25, 1, 225]           6,250
│    └─BatchNorm2d: 2-7                  [1, 25, 1, 225]           [1, 25, 1, 225]           50
│    └─ELU: 2-8                          [1, 25, 1, 225]           [1, 25, 1, 225]           --
├─AvgPool2d: 1-6                         [1, 25, 1, 225]           [1, 25, 1, 45]            --
├─Dropout: 1-7                           [1, 25, 1, 45]            [1, 25, 1, 45]            --
├─Flatten: 1-8                           [1, 25, 1, 45]            [1, 1125]                 --
├─Linear: 1-9                            [1, 1125]                 [1, 4]                    4,504
===================================================================================================================
Total params: 31,054
Trainable params: 31,054
Non-trainable params: 0
Total mult-adds (M): 281.00
===================================================================================================================
Input size (MB): 0.14
Forward/backward pass size (MB): 72.60
Params size (MB): 0.12
…
