…
/WAVE/users/unix/smadsen/Desktop/bci_final/datasets/pca/train/6.edf.data
/WAVE/users/unix/smadsen/Desktop/bci_final/datasets/pca/train/13.edf.data
/WAVE/users/unix/smadsen/Desktop/bci_final/datasets/pca/train/3.edf.data
Found 8995 trials
Found 2249 trials
===================================================================================================================
Layer (type:depth-idx)                   Input Shape               Output Shape              Param #
===================================================================================================================
EEGInception                             [1, 30, 1, 1126]          [1, 4]                    --
├─Residual_Mod: 1-1                      [1, 30, 1, 1126]          [1, 288, 1, 1126]         --
│    └─Conv2d: 2-1                       [1, 30, 1, 1126]          [1, 288, 1, 1126]         8,928
│    └─BatchNorm2d: 2-2                  [1, 288, 1, 1126]         [1, 288, 1, 1126]         576
│    └─ReLU: 2-3                         [1, 288, 1, 1126]         [1, 288, 1, 1126]         --
├─Initial_IncepBlk: 1-2                  [1, 30, 1, 1126]          [1, 288, 1, 1126]         --
│    └─Conv2d: 2-4                       [1, 30, 1, 1126]          [1, 48, 1, 1126]          1,488
│    └─Conv2d: 2-5                       [1, 48, 1, 1126]          [1, 48, 1, 1126]          57,648
│    └─Conv2d: 2-6                       [1, 48, 1, 1126]          [1, 48, 1, 1126]          172,848
│    └─Conv2d: 2-7                       [1, 48, 1, 1126]          [1, 48, 1, 1126]          288,048
│    └─Conv2d: 2-8                       [1, 48, 1, 1126]          [1, 48, 1, 1126]          403,248
│    └─Conv2d: 2-9                       [1, 48, 1, 1126]          [1, 48, 1, 1126]          518,448
│    └─Sequential: 2-10                  [1, 30, 1, 1126]          [1, 48, 1, 1126]          --
│    │    └─MaxPool2d: 3-1               [1, 30, 1, 1126]          [1, 30, 1, 1126]          --
│    │    └─Conv2d: 3-2                  [1, 30, 1, 1126]          [1, 48, 1, 1126]          1,488
│    └─BatchNorm2d: 2-11                 [1, 288, 1, 1126]         [1, 288, 1, 1126]         576
│    └─ReLU: 2-12                        [1, 288, 1, 1126]         [1, 288, 1, 1126]         --
├─Intermediate_IncepBlk: 1-3             [1, 288, 1, 1126]         [1, 288, 1, 1126]         --
│    └─Conv2d: 2-13                      [1, 288, 1, 1126]         [1, 48, 1, 1126]          13,872
│    └─Conv2d: 2-14                      [1, 48, 1, 1126]          [1, 48, 1, 1126]          57,648
│    └─Conv2d: 2-15                      [1, 48, 1, 1126]          [1, 48, 1, 1126]          172,848
│    └─Conv2d: 2-16                      [1, 48, 1, 1126]          [1, 48, 1, 1126]          288,048
│    └─Conv2d: 2-17                      [1, 48, 1, 1126]          [1, 48, 1, 1126]          403,248
│    └─Conv2d: 2-18                      [1, 48, 1, 1126]          [1, 48, 1, 1126]          518,448
│    └─Sequential: 2-19                  [1, 288, 1, 1126]         [1, 48, 1, 1126]          --
│    │    └─MaxPool2d: 3-3               [1, 288, 1, 1126]         [1, 288, 1, 1126]         --
│    │    └─Conv2d: 3-4                  [1, 288, 1, 1126]         [1, 48, 1, 1126]          13,872
│    └─BatchNorm2d: 2-20                 [1, 288, 1, 1126]         [1, 288, 1, 1126]         576
│    └─ReLU: 2-21                        [1, 288, 1, 1126]         [1, 288, 1, 1126]         --
├─Intermediate_IncepBlk: 1-4             [1, 288, 1, 1126]         [1, 288, 1, 1126]         --
│    └─Conv2d: 2-22                      [1, 288, 1, 1126]         [1, 48, 1, 1126]          13,872
│    └─Conv2d: 2-23                      [1, 48, 1, 1126]          [1, 48, 1, 1126]          57,648
│    └─Conv2d: 2-24                      [1, 48, 1, 1126]          [1, 48, 1, 1126]          172,848
│    └─Conv2d: 2-25                      [1, 48, 1, 1126]          [1, 48, 1, 1126]          288,048
│    └─Conv2d: 2-26                      [1, 48, 1, 1126]          [1, 48, 1, 1126]          403,248
│    └─Conv2d: 2-27                      [1, 48, 1, 1126]          [1, 48, 1, 1126]          518,448
│    └─Sequential: 2-28                  [1, 288, 1, 1126]         [1, 48, 1, 1126]          --
│    │    └─MaxPool2d: 3-5               [1, 288, 1, 1126]         [1, 288, 1, 1126]         --
│    │    └─Conv2d: 3-6                  [1, 288, 1, 1126]         [1, 48, 1, 1126]          13,872
│    └─BatchNorm2d: 2-29                 [1, 288, 1, 1126]         [1, 288, 1, 1126]         576
│    └─ReLU: 2-30                        [1, 288, 1, 1126]         [1, 288, 1, 1126]         --
├─Residual_Mod: 1-5                      [1, 288, 1, 1126]         [1, 288, 1, 1126]         --
│    └─Conv2d: 2-31                      [1, 288, 1, 1126]         [1, 288, 1, 1126]         83,232
│    └─BatchNorm2d: 2-32                 [1, 288, 1, 1126]         [1, 288, 1, 1126]         576
│    └─ReLU: 2-33                        [1, 288, 1, 1126]         [1, 288, 1, 1126]         --
├─Intermediate_IncepBlk: 1-6             [1, 288, 1, 1126]         [1, 288, 1, 1126]         --
│    └─Conv2d: 2-34                      [1, 288, 1, 1126]         [1, 48, 1, 1126]          13,872
│    └─Conv2d: 2-35                      [1, 48, 1, 1126]          [1, 48, 1, 1126]          57,648
│    └─Conv2d: 2-36                      [1, 48, 1, 1126]          [1, 48, 1, 1126]          172,848
│    └─Conv2d: 2-37                      [1, 48, 1, 1126]          [1, 48, 1, 1126]          288,048
│    └─Conv2d: 2-38                      [1, 48, 1, 1126]          [1, 48, 1, 1126]          403,248
│    └─Conv2d: 2-39                      [1, 48, 1, 1126]          [1, 48, 1, 1126]          518,448
│    └─Sequential: 2-40                  [1, 288, 1, 1126]         [1, 48, 1, 1126]          --
│    │    └─MaxPool2d: 3-7               [1, 288, 1, 1126]         [1, 288, 1, 1126]         --
│    │    └─Conv2d: 3-8                  [1, 288, 1, 1126]         [1, 48, 1, 1126]          13,872
│    └─BatchNorm2d: 2-41                 [1, 288, 1, 1126]         [1, 288, 1, 1126]         576
│    └─ReLU: 2-42                        [1, 288, 1, 1126]         [1, 288, 1, 1126]         --
├─Intermediate_IncepBlk: 1-7             [1, 288, 1, 1126]         [1, 288, 1, 1126]         --
│    └─Conv2d: 2-43                      [1, 288, 1, 1126]         [1, 48, 1, 1126]          13,872
│    └─Conv2d: 2-44                      [1, 48, 1, 1126]          [1, 48, 1, 1126]          57,648
│    └─Conv2d: 2-45                      [1, 48, 1, 1126]          [1, 48, 1, 1126]          172,848
│    └─Conv2d: 2-46                      [1, 48, 1, 1126]          [1, 48, 1, 1126]          288,048
│    └─Conv2d: 2-47                      [1, 48, 1, 1126]          [1, 48, 1, 1126]          403,248
│    └─Conv2d: 2-48                      [1, 48, 1, 1126]          [1, 48, 1, 1126]          518,448
│    └─Sequential: 2-49                  [1, 288, 1, 1126]         [1, 48, 1, 1126]          --
│    │    └─MaxPool2d: 3-9               [1, 288, 1, 1126]         [1, 288, 1, 1126]         --
│    │    └─Conv2d: 3-10                 [1, 288, 1, 1126]         [1, 48, 1, 1126]          13,872
│    └─BatchNorm2d: 2-50                 [1, 288, 1, 1126]         [1, 288, 1, 1126]         576
│    └─ReLU: 2-51                        [1, 288, 1, 1126]         [1, 288, 1, 1126]         --
├─Intermediate_IncepBlk: 1-8             [1, 288, 1, 1126]         [1, 288, 1, 1126]         --
│    └─Conv2d: 2-52                      [1, 288, 1, 1126]         [1, 48, 1, 1126]          13,872
│    └─Conv2d: 2-53                      [1, 48, 1, 1126]          [1, 48, 1, 1126]          57,648
│    └─Conv2d: 2-54                      [1, 48, 1, 1126]          [1, 48, 1, 1126]          172,848
│    └─Conv2d: 2-55                      [1, 48, 1, 1126]          [1, 48, 1, 1126]          288,048
│    └─Conv2d: 2-56                      [1, 48, 1, 1126]          [1, 48, 1, 1126]          403,248
│    └─Conv2d: 2-57                      [1, 48, 1, 1126]          [1, 48, 1, 1126]          518,448
│    └─Sequential: 2-58                  [1, 288, 1, 1126]         [1, 48, 1, 1126]          --
│    │    └─MaxPool2d: 3-11              [1, 288, 1, 1126]         [1, 288, 1, 1126]         --
│    │    └─Conv2d: 3-12                 [1, 288, 1, 1126]         [1, 48, 1, 1126]          13,872
│    └─BatchNorm2d: 2-59                 [1, 288, 1, 1126]         [1, 288, 1, 1126]         576
│    └─ReLU: 2-60                        [1, 288, 1, 1126]         [1, 288, 1, 1126]         --
├─AvgPool2d: 1-9                         [1, 288, 1, 1126]         [1, 288, 1, 1126]         --
├─Flatten: 1-10                          [1, 288, 1, 1126]         [1, 324288]               --
├─Linear: 1-11                           [1, 324288]               [1, 4]                    1,297,156
===================================================================================================================
Total params: 10,177,060
Trainable params: 10,177,060
Non-trainable params: 0
Total mult-adds (G): 9.99
===================================================================================================================
Input size (MB): 0.14
Forward/backward pass size (MB): 44.10
Params size (MB): 40.71
…
