…
/WAVE/users/unix/smadsen/Desktop/bci_final/datasets/pca/train/6.edf.data
/WAVE/users/unix/smadsen/Desktop/bci_final/datasets/pca/train/13.edf.data
/WAVE/users/unix/smadsen/Desktop/bci_final/datasets/pca/train/3.edf.data
Found 8995 trials
Found 2249 trials
===================================================================================================================
Layer (type:depth-idx)                   Input Shape               Output Shape              Param #
===================================================================================================================
ShallowConvNet                           [1, 1, 1126, 30]          [1, 4]                    --
├─Sequential: 1-1                        [1, 1, 1126, 30]          [1, 4]                    --
│    └─Conv2d: 2-1                       [1, 1, 1126, 30]          [1, 60, 1102, 30]         1,560
│    └─Conv2d: 2-2                       [1, 60, 1102, 30]         [1, 60, 1102, 1]          108,060
│    └─BatchNorm2d: 2-3                  [1, 60, 1102, 1]          [1, 60, 1102, 1]          120
│    └─Square: 2-4                       [1, 60, 1102, 1]          [1, 60, 1102, 1]          --
│    └─AvgPool2d: 2-5                    [1, 60, 1102, 1]          [1, 60, 69, 1]            --
│    └─Log: 2-6                          [1, 60, 69, 1]            [1, 60, 69, 1]            --
│    └─Flatten: 2-7                      [1, 60, 69, 1]            [1, 4140]                 --
│    └─Linear: 2-8                       [1, 4140]                 [1, 4]                    16,564
===================================================================================================================
Total params: 126,304
Trainable params: 126,304
Non-trainable params: 0
Total mult-adds (M): 170.67
===================================================================================================================
Input size (MB): 0.14
Forward/backward pass size (MB): 16.93
Params size (MB): 0.51
…
