…
/WAVE/users/unix/smadsen/Desktop/bci_final/datasets/baseline/test/6.edf.data
/WAVE/users/unix/smadsen/Desktop/bci_final/datasets/baseline/test/3.edf.data
/WAVE/users/unix/smadsen/Desktop/bci_final/datasets/baseline/test/11.edf.data
Found 2240 trials
===================================================================================================================
Layer (type:depth-idx)                   Input Shape               Output Shape              Param #
===================================================================================================================
ShallowConvNet                           [1, 1, 1126, 128]         [1, 4]                    --
├─Sequential: 1-1                        [1, 1, 1126, 128]         [1, 4]                    --
│    └─Conv2d: 2-1                       [1, 1, 1126, 128]         [1, 60, 1102, 128]        1,560
│    └─Conv2d: 2-2                       [1, 60, 1102, 128]        [1, 60, 1102, 1]          460,860
│    └─BatchNorm2d: 2-3                  [1, 60, 1102, 1]          [1, 60, 1102, 1]          120
│    └─Square: 2-4                       [1, 60, 1102, 1]          [1, 60, 1102, 1]          --
│    └─AvgPool2d: 2-5                    [1, 60, 1102, 1]          [1, 60, 69, 1]            --
│    └─Log: 2-6                          [1, 60, 69, 1]            [1, 60, 69, 1]            --
│    └─Flatten: 2-7                      [1, 60, 69, 1]            [1, 4140]                 --
│    └─Linear: 2-8                       [1, 4140]                 [1, 4]                    16,564
===================================================================================================================
Total params: 479,104
Trainable params: 479,104
Non-trainable params: 0
Total mult-adds (M): 727.93
===================================================================================================================
Input size (MB): 0.58
Forward/backward pass size (MB): 68.76
Params size (MB): 1.92
…
#############################################################
# ShallowConvNet - Baseline                   
# Test Acc.:  0.8526785714285714                      
#############################################################
Found 2240 trials
===================================================================================================================
Layer (type:depth-idx)                   Input Shape               Output Shape              Param #
===================================================================================================================
DeepConvNet                              [1, 1, 1126, 128]         [1, 4]                    --
├─Sequential: 1-1                        [1, 1, 1126, 128]         [1, 4]                    --
│    └─Conv2d: 2-1                       [1, 1, 1126, 128]         [1, 25, 1117, 128]        275
│    └─Conv2d: 2-2                       [1, 25, 1117, 128]        [1, 25, 1117, 1]          80,025
│    └─BatchNorm2d: 2-3                  [1, 25, 1117, 1]          [1, 25, 1117, 1]          50
│    └─ELU: 2-4                          [1, 25, 1117, 1]          [1, 25, 1117, 1]          --
│    └─MaxPool2d: 2-5                    [1, 25, 1117, 1]          [1, 25, 372, 1]           --
│    └─Conv2d: 2-6                       [1, 25, 372, 1]           [1, 50, 363, 1]           12,550
│    └─BatchNorm2d: 2-7                  [1, 50, 363, 1]           [1, 50, 363, 1]           100
│    └─ELU: 2-8                          [1, 50, 363, 1]           [1, 50, 363, 1]           --
│    └─MaxPool2d: 2-9                    [1, 50, 363, 1]           [1, 50, 121, 1]           --
│    └─Conv2d: 2-10                      [1, 50, 121, 1]           [1, 100, 112, 1]          50,100
│    └─ELU: 2-11                         [1, 100, 112, 1]          [1, 100, 112, 1]          --
│    └─BatchNorm2d: 2-12                 [1, 100, 112, 1]          [1, 100, 112, 1]          200
│    └─MaxPool2d: 2-13                   [1, 100, 112, 1]          [1, 100, 37, 1]           --
│    └─Conv2d: 2-14                      [1, 100, 37, 1]           [1, 200, 28, 1]           200,200
│    └─BatchNorm2d: 2-15                 [1, 200, 28, 1]           [1, 200, 28, 1]           400
│    └─ELU: 2-16                         [1, 200, 28, 1]           [1, 200, 28, 1]           --
│    └─MaxPool2d: 2-17                   [1, 200, 28, 1]           [1, 200, 9, 1]            --
│    └─Flatten: 2-18                     [1, 200, 9, 1]            [1, 1800]                 --
│    └─Linear: 2-19                      [1, 1800]                 [1, 4]                    7,204
===================================================================================================================
Total params: 351,104
Trainable params: 351,104
Non-trainable params: 0
Total mult-adds (M): 144.49
===================================================================================================================
Input size (MB): 0.58
Forward/backward pass size (MB): 29.60
Params size (MB): 1.40
…
#############################################################
# DeepConvNet - Baseline                   
# Test Acc.:  0.83125                      
#############################################################
Found 2240 trials
===================================================================================================================
Layer (type:depth-idx)                   Input Shape               Output Shape              Param #
===================================================================================================================
EEGNet                                   [1, 1, 128, 1126]         [1, 4]                    --
├─Sequential: 1-1                        [1, 1, 128, 1126]         [1, 125, 128, 1126]       --
│    └─Conv2d: 2-1                       [1, 1, 128, 1126]         [1, 125, 128, 1126]       8,000
│    └─BatchNorm2d: 2-2                  [1, 125, 128, 1126]       [1, 125, 128, 1126]       250
├─Sequential: 1-2                        [1, 125, 128, 1126]       [1, 250, 1, 1126]         --
│    └─Conv2d: 2-3                       [1, 125, 128, 1126]       [1, 250, 1, 1126]         32,000
│    └─BatchNorm2d: 2-4                  [1, 250, 1, 1126]         [1, 250, 1, 1126]         500
│    └─ELU: 2-5                          [1, 250, 1, 1126]         [1, 250, 1, 1126]         --
├─AvgPool2d: 1-3                         [1, 250, 1, 1126]         [1, 250, 1, 225]          --
├─Dropout: 1-4                           [1, 250, 1, 225]          [1, 250, 1, 225]          --
├─Sequential: 1-5                        [1, 250, 1, 225]          [1, 25, 1, 225]           --
│    └─SeparableConv2d: 2-6              [1, 250, 1, 225]          [1, 25, 1, 225]           --
│    │    └─Conv2d: 3-1                  [1, 250, 1, 225]          [1, 250, 1, 225]          4,000
│    │    └─Conv2d: 3-2                  [1, 250, 1, 225]          [1, 25, 1, 225]           6,250
│    └─BatchNorm2d: 2-7                  [1, 25, 1, 225]           [1, 25, 1, 225]           50
│    └─ELU: 2-8                          [1, 25, 1, 225]           [1, 25, 1, 225]           --
├─AvgPool2d: 1-6                         [1, 25, 1, 225]           [1, 25, 1, 45]            --
├─Dropout: 1-7                           [1, 25, 1, 45]            [1, 25, 1, 45]            --
├─Flatten: 1-8                           [1, 25, 1, 45]            [1, 1125]                 --
├─Linear: 1-9                            [1, 1125]                 [1, 4]                    4,504
===================================================================================================================
Total params: 55,554
Trainable params: 55,554
Non-trainable params: 0
Total mult-adds (G): 1.19
===================================================================================================================
Input size (MB): 0.58
Forward/backward pass size (MB): 293.30
Params size (MB): 0.22
…
#############################################################
# EEGNet - Baseline                   
# Test Acc.:  0.821875                      
#############################################################
Found 2240 trials
===================================================================================================================
Layer (type:depth-idx)                   Input Shape               Output Shape              Param #
===================================================================================================================
EEGInception                             [1, 128, 1, 1126]         [1, 4]                    --
├─Residual_Mod: 1-1                      [1, 128, 1, 1126]         [1, 288, 1, 1126]         --
│    └─Conv2d: 2-1                       [1, 128, 1, 1126]         [1, 288, 1, 1126]         37,152
│    └─BatchNorm2d: 2-2                  [1, 288, 1, 1126]         [1, 288, 1, 1126]         576
│    └─ReLU: 2-3                         [1, 288, 1, 1126]         [1, 288, 1, 1126]         --
├─Initial_IncepBlk: 1-2                  [1, 128, 1, 1126]         [1, 288, 1, 1126]         --
│    └─Conv2d: 2-4                       [1, 128, 1, 1126]         [1, 48, 1, 1126]          6,192
│    └─Conv2d: 2-5                       [1, 48, 1, 1126]          [1, 48, 1, 1126]          57,648
│    └─Conv2d: 2-6                       [1, 48, 1, 1126]          [1, 48, 1, 1126]          172,848
│    └─Conv2d: 2-7                       [1, 48, 1, 1126]          [1, 48, 1, 1126]          288,048
│    └─Conv2d: 2-8                       [1, 48, 1, 1126]          [1, 48, 1, 1126]          403,248
│    └─Conv2d: 2-9                       [1, 48, 1, 1126]          [1, 48, 1, 1126]          518,448
│    └─Sequential: 2-10                  [1, 128, 1, 1126]         [1, 48, 1, 1126]          --
│    │    └─MaxPool2d: 3-1               [1, 128, 1, 1126]         [1, 128, 1, 1126]         --
│    │    └─Conv2d: 3-2                  [1, 128, 1, 1126]         [1, 48, 1, 1126]          6,192
│    └─BatchNorm2d: 2-11                 [1, 288, 1, 1126]         [1, 288, 1, 1126]         576
│    └─ReLU: 2-12                        [1, 288, 1, 1126]         [1, 288, 1, 1126]         --
├─Intermediate_IncepBlk: 1-3             [1, 288, 1, 1126]         [1, 288, 1, 1126]         --
│    └─Conv2d: 2-13                      [1, 288, 1, 1126]         [1, 48, 1, 1126]          13,872
│    └─Conv2d: 2-14                      [1, 48, 1, 1126]          [1, 48, 1, 1126]          57,648
│    └─Conv2d: 2-15                      [1, 48, 1, 1126]          [1, 48, 1, 1126]          172,848
│    └─Conv2d: 2-16                      [1, 48, 1, 1126]          [1, 48, 1, 1126]          288,048
│    └─Conv2d: 2-17                      [1, 48, 1, 1126]          [1, 48, 1, 1126]          403,248
│    └─Conv2d: 2-18                      [1, 48, 1, 1126]          [1, 48, 1, 1126]          518,448
│    └─Sequential: 2-19                  [1, 288, 1, 1126]         [1, 48, 1, 1126]          --
│    │    └─MaxPool2d: 3-3               [1, 288, 1, 1126]         [1, 288, 1, 1126]         --
│    │    └─Conv2d: 3-4                  [1, 288, 1, 1126]         [1, 48, 1, 1126]          13,872
│    └─BatchNorm2d: 2-20                 [1, 288, 1, 1126]         [1, 288, 1, 1126]         576
│    └─ReLU: 2-21                        [1, 288, 1, 1126]         [1, 288, 1, 1126]         --
├─Intermediate_IncepBlk: 1-4             [1, 288, 1, 1126]         [1, 288, 1, 1126]         --
│    └─Conv2d: 2-22                      [1, 288, 1, 1126]         [1, 48, 1, 1126]          13,872
│    └─Conv2d: 2-23                      [1, 48, 1, 1126]          [1, 48, 1, 1126]          57,648
│    └─Conv2d: 2-24                      [1, 48, 1, 1126]          [1, 48, 1, 1126]          172,848
│    └─Conv2d: 2-25                      [1, 48, 1, 1126]          [1, 48, 1, 1126]          288,048
│    └─Conv2d: 2-26                      [1, 48, 1, 1126]          [1, 48, 1, 1126]          403,248
│    └─Conv2d: 2-27                      [1, 48, 1, 1126]          [1, 48, 1, 1126]          518,448
│    └─Sequential: 2-28                  [1, 288, 1, 1126]         [1, 48, 1, 1126]          --
│    │    └─MaxPool2d: 3-5               [1, 288, 1, 1126]         [1, 288, 1, 1126]         --
│    │    └─Conv2d: 3-6                  [1, 288, 1, 1126]         [1, 48, 1, 1126]          13,872
│    └─BatchNorm2d: 2-29                 [1, 288, 1, 1126]         [1, 288, 1, 1126]         576
│    └─ReLU: 2-30                        [1, 288, 1, 1126]         [1, 288, 1, 1126]         --
├─Residual_Mod: 1-5                      [1, 288, 1, 1126]         [1, 288, 1, 1126]         --
│    └─Conv2d: 2-31                      [1, 288, 1, 1126]         [1, 288, 1, 1126]         83,232
│    └─BatchNorm2d: 2-32                 [1, 288, 1, 1126]         [1, 288, 1, 1126]         576
│    └─ReLU: 2-33                        [1, 288, 1, 1126]         [1, 288, 1, 1126]         --
├─Intermediate_IncepBlk: 1-6             [1, 288, 1, 1126]         [1, 288, 1, 1126]         --
│    └─Conv2d: 2-34                      [1, 288, 1, 1126]         [1, 48, 1, 1126]          13,872
│    └─Conv2d: 2-35                      [1, 48, 1, 1126]          [1, 48, 1, 1126]          57,648
│    └─Conv2d: 2-36                      [1, 48, 1, 1126]          [1, 48, 1, 1126]          172,848
│    └─Conv2d: 2-37                      [1, 48, 1, 1126]          [1, 48, 1, 1126]          288,048
│    └─Conv2d: 2-38                      [1, 48, 1, 1126]          [1, 48, 1, 1126]          403,248
│    └─Conv2d: 2-39                      [1, 48, 1, 1126]          [1, 48, 1, 1126]          518,448
│    └─Sequential: 2-40                  [1, 288, 1, 1126]         [1, 48, 1, 1126]          --
│    │    └─MaxPool2d: 3-7               [1, 288, 1, 1126]         [1, 288, 1, 1126]         --
│    │    └─Conv2d: 3-8                  [1, 288, 1, 1126]         [1, 48, 1, 1126]          13,872
│    └─BatchNorm2d: 2-41                 [1, 288, 1, 1126]         [1, 288, 1, 1126]         576
│    └─ReLU: 2-42                        [1, 288, 1, 1126]         [1, 288, 1, 1126]         --
├─Intermediate_IncepBlk: 1-7             [1, 288, 1, 1126]         [1, 288, 1, 1126]         --
│    └─Conv2d: 2-43                      [1, 288, 1, 1126]         [1, 48, 1, 1126]          13,872
│    └─Conv2d: 2-44                      [1, 48, 1, 1126]          [1, 48, 1, 1126]          57,648
│    └─Conv2d: 2-45                      [1, 48, 1, 1126]          [1, 48, 1, 1126]          172,848
│    └─Conv2d: 2-46                      [1, 48, 1, 1126]          [1, 48, 1, 1126]          288,048
│    └─Conv2d: 2-47                      [1, 48, 1, 1126]          [1, 48, 1, 1126]          403,248
│    └─Conv2d: 2-48                      [1, 48, 1, 1126]          [1, 48, 1, 1126]          518,448
│    └─Sequential: 2-49                  [1, 288, 1, 1126]         [1, 48, 1, 1126]          --
│    │    └─MaxPool2d: 3-9               [1, 288, 1, 1126]         [1, 288, 1, 1126]         --
│    │    └─Conv2d: 3-10                 [1, 288, 1, 1126]         [1, 48, 1, 1126]          13,872
│    └─BatchNorm2d: 2-50                 [1, 288, 1, 1126]         [1, 288, 1, 1126]         576
│    └─ReLU: 2-51                        [1, 288, 1, 1126]         [1, 288, 1, 1126]         --
├─Intermediate_IncepBlk: 1-8             [1, 288, 1, 1126]         [1, 288, 1, 1126]         --
│    └─Conv2d: 2-52                      [1, 288, 1, 1126]         [1, 48, 1, 1126]          13,872
│    └─Conv2d: 2-53                      [1, 48, 1, 1126]          [1, 48, 1, 1126]          57,648
│    └─Conv2d: 2-54                      [1, 48, 1, 1126]          [1, 48, 1, 1126]          172,848
│    └─Conv2d: 2-55                      [1, 48, 1, 1126]          [1, 48, 1, 1126]          288,048
│    └─Conv2d: 2-56                      [1, 48, 1, 1126]          [1, 48, 1, 1126]          403,248
│    └─Conv2d: 2-57                      [1, 48, 1, 1126]          [1, 48, 1, 1126]          518,448
│    └─Sequential: 2-58                  [1, 288, 1, 1126]         [1, 48, 1, 1126]          --
│    │    └─MaxPool2d: 3-11              [1, 288, 1, 1126]         [1, 288, 1, 1126]         --
│    │    └─Conv2d: 3-12                 [1, 288, 1, 1126]         [1, 48, 1, 1126]          13,872
│    └─BatchNorm2d: 2-59                 [1, 288, 1, 1126]         [1, 288, 1, 1126]         576
│    └─ReLU: 2-60                        [1, 288, 1, 1126]         [1, 288, 1, 1126]         --
├─AvgPool2d: 1-9                         [1, 288, 1, 1126]         [1, 288, 1, 1126]         --
├─Flatten: 1-10                          [1, 288, 1, 1126]         [1, 324288]               --
├─Linear: 1-11                           [1, 324288]               [1, 4]                    1,297,156
===================================================================================================================
Total params: 10,214,692
Trainable params: 10,214,692
Non-trainable params: 0
Total mult-adds (G): 10.04
===================================================================================================================
Input size (MB): 0.58
Forward/backward pass size (MB): 44.10
Params size (MB): 40.86
…
